SFOF4S/model/converted_model.pt (torch, 241952 bytes, 4 tensors)

conv1.bias f4 [64]
-0.03819544 -0.078736536 -0.04837712 0.013055172 -0.00097364356 -0.0048992545 0.02322863 -0.019920181
0.0058656232 -0.045658134 0.03296367 -0.011441922 -8.4240455e-06 -0.032814894 -0.02627863 0.011953207
0.00041907254 -0.013087074 0.003135762 0.010856713 0.050921433 -0.005359094 0.004829779 -0.06430601
-0.021425541 0.02595343 0.009309758 0.0045278007 -0.031625133 -0.012666931 0.0013033556 0.05703826
0.052460287 -0.004924975 0.037996124 0.0379258 -0.15174486 -0.075895704 0.0018722124 0.13564754
0.017022384 0.037255723 0.02242457 0.03239632 0.039075438 0.017720284 -0.011999035 -0.10336166
0.011909463 0.020686464 0.0055435114 -0.08257854 -0.0007262086 0.040127363 -0.013339294 -0.0029725374
0.0063787727 -0.0022335919 0.003612585 0.007846084 -0.0059096 -0.00075010996 0.0023894312 0.0069248886
00000000: d272 1cbd 9f40 a1bd 1627 46bd 5ce5 553c
00000010: 1d3c 7fba ed89 a0bb f849 be3c a62f a3bc
00000020: 6a34 c03b 0604 3bbd ea04 073d e676 3bbc
00000030: 0055 0db7 e968 06bd 4846 d7bc 62d7 433c
00000040: f7b6 db39 2b6b 56bc 5b81 4d3b 5be0 313c
00000050: fe92 503d 579b afbb 1f43 9e3b dfb2 83bd
00000060: 9e84 afbc 4a9c d43c f587 183c f25d 943b
00000070: 5b89 01bd f688 4fbc 5bd5 aa3a f3a0 693d
00000080: 99e0 563d af61 a1bb d3a1 1b3d 1558 1b3d
00000090: 0163 1bbe 356f 9bbd 0665 f53a 30e7 0a3e
000000a0: 8772 8b3c 7599 183d bbb3 b73c 01b2 043d
000000b0: 910d 203d 212a 913c 9a97 44bc 47af d3bd
000000c0: e91f 433c a976 a93c 58a6 b53b f01e a9bd
000000d0: 095f 3eba 975c 243d 0e8d 5abc e7ce 42bb
000000e0: 0605 d13b 7461 12bb 1ec1 6c3b dd8c 003c
000000f0: 51a5 c1bb 07a3 44ba 0198 1c3b 2dea e23b

conv2.bias f4 [64]
-0.00045936278 0.005232362 0.014221726 0.0016559343 -0.011568772 0.01308091 0.0035594641 -0.0035370423
-0.0112509 0.011595257 0.016696371 -0.01783379 0.012131397 0.0013486994 0.005589172 0.029771319
0.014780239 -0.021100722 -0.002676496 0.01476008 0.019774308 -0.0149818305 0.0001891348 -0.017603993
-0.010308086 0.0075136707 0.00292452 -0.0104065295 0.006873872 0.013838303 -0.013075182 -0.0040350077
0.053077523 -0.01740993 0.007063757 0.0019775354 -0.0026931942 0.004149252 -0.0014116833 0.045204736
-0.011721724 -0.00893592 0.016907798 -0.0022975893 -0.008759794 -0.0031286825 0.0051312484 -0.003484114
-0.0076649217 -0.004368948 -0.0058452426 -0.064579256 0.0014516999 0.008161932 -0.025796006 -0.10790382
-0.0012152329 0.016754612 -0.007898131 -0.049075603 -0.09003819 -0.023360966 -0.010118368 -0.0013232655
00000000: a1d6 f0b9 3c74 ab3b 3e02 693c ef0b d93a
00000010: f28a 3dbc 5051 563c e645 693b b9cd 67bb
00000020: b255 38bc 08fa 3d3c d4c6 883c 2b18 92bc
00000030: c4c2 463c d8c6 b03a 5f25 b73b fbe2 f33c
00000040: d128 723c 6cdb acbc 2768 2fbb 43d4 713c
00000050: bbfd a13c 5a76 75bc 7c52 4639 4036 90bc
00000060: 3fe3 28bc 3d35 f63b 4ea9 3f3b 2680 2abc
00000070: 383e e13b 0dba 623c 4a39 56bc 1938 84bb
00000080: d167 593d 459f 8ebc 1777 e73b 8a99 013b
00000090: 4d80 30bb 73f6 873b 3b08 b9ba 9a28 393d
000000a0: 790c 40bc f767 12bc 3982 8a3c 2793 16bb
000000b0: 3d85 0fbc 950a 4dbb 0824 a83b bc55 64bb
000000c0: 062a fbbb 6429 8fbb 7389 bfbb 2142 84bd
000000d0: f746 be3a a0b9 053c 2552 d3bc aefc dcbd
000000e0: 7348 9fba f840 893c 2a67 01bc 8003 49bd
000000f0: f165 b8bd 7f5f bfbc 83c7 25bc 6c71 adba

conv3.bias f4 [32]
0.0002597365 -0.014373554 -0.029430445 0.0028905931 0.0017557986 -0.07044308 0.0033890454 -0.00061026623
-0.00309984 0.014627258 -0.0042605246 -0.030317094 0.08186845 0.018915514 0.02957928 0.02724198
0.0060892 0.0053971997 0.0008429861 -0.12809576 -0.0022583923 0.00634303 0.040923465 0.02775947
-0.0032768226 0.0049576564 -0.07159274 -0.039289657 0.052742526 -0.0034305486 2.4716312e-05 0.0008242892
00000000: 3e2d 8839 0e7f 6bbc 1e18 f1bc 1b70 3d3b
00000010: d322 e63a 7644 90bd bf1a 5e3b 46fa 1fba
00000020: af26 4bbb 2ba7 6f3c df9b 8bbb 8e5b f8bc
00000030: a5aa a73d b5f4 9a3c 3f50 f23c 932a df3c
00000040: e987 c73b feda b03b d7fb 5c3a 892b 03be
00000050: 8901 14bb 31d9 cf3b 5d9f 273d d467 e33c
00000060: f6bf 56bb d673 a23b 379f 92bd 31ee 20bd
00000070: 8c08 583d 0ed3 60bb e055 cf37 1d15 583a

conv4.bias f4 [9]
0.008722942 0.004134065 0.00067053974 -0.0021712554 -0.0006772939 0.003997806 -0.0062857945 0.0017843982
-9.983185e-06
00000000: acea 0e3c 0d77 873b 29c7 2f3a 9f4b 0ebb
00000010: 6d8c 31ba 0700 833b 11f9 cdbb 78e2 e93a
00000020: 747d 27b7
